NEATandDeepQ/trained_q_agent.pth (torch, 5143 bytes, 6 tensors)

0.weight f4 [32, 4]
0	0xc18514df	-16.635191
1	0xc19b3cf1	-19.404757
2	0xc19cef54	-19.61686
3	0xc1038bba	-8.221613
4	0xbf85e1a7	-1.0459489
5	0xc0bfceaf	-5.99398
6	0xbfb219f8	-1.3914175
7	0x3e9aade6	0.302108
8	0xbe3b548a	-0.18293968
9	0x3f9dd744	1.2331319
10	0x3ed8ca35	0.42341772
11	0x3dbe3074	0.092865855
12	0xbf139389	-0.57646996
13	0x4061a697	3.5257928
14	0x3fd78c0a	1.6839612
15	0xbfdd8e0d	-1.7308975
16	0xbf9b4dc3	-1.2133106
17	0x3da44ebe	0.080228314
18	0xc053600b	-3.302737
19	0x402bddea	2.6854196
20	0xbf910194	-1.1328607
21	0x4094128d	4.6272645
22	0xc0c93fb8	-6.289028
23	0xc0c9f19e	-6.3107443
24	0xbf3a11ca	-0.72683394
25	0x40f9c47d	7.8052354
26	0xbebfe323	-0.3747798
27	0x3ede22b3	0.43385848
28	0xbd5dcd3a	-0.054150797
29	0x4150ed12	13.0578785
30	0xbf447103	-0.7673494
31	0x3f33348f	0.70002073
32	0xc0090c6c	-2.1413832
33	0x3f7afd3d	0.9804266
34	0xbfcb78bc	-1.589622
35	0x3fdc06da	1.7189591
36	0xc1238237	-10.219291
37	0xbf84d9e7	-1.0378999
38	0xbef68c12	-0.4815374
39	0xc0f1e771	-7.559502
40	0xbe2f2fba	-0.1710805
41	0x40ef9719	7.4871945
42	0xc0f016ab	-7.502767
43	0x3ea943c4	0.33059514
44	0x402d7d87	2.7107866
45	0x4069d8ac	3.6538496
46	0xc08eeecf	-4.4666514
47	0xc09c9f83	-4.8944716
48	0xbe051961	-0.12997963
49	0xc11d82d9	-9.844445
50	0xbdd7b844	-0.10533193
51	0xbe42385d	-0.18966813
52	0xbe2cd427	-0.16877805
53	0x3d2e8b93	0.042613577
54	0x3f0e89d4	0.5567906
55	0xbfcd9c31	-1.6063291
56	0xc0dad38b	-6.838323
57	0xbe7dfe43	-0.24804024
58	0xc189de52	-17.233555
59	0xc1679f70	-14.476425
60	0xbf2a9375	-0.6663125
61	0xbf899c24	-1.0750775
62	0x3f5c66fe	0.86094654
63	0xc01040a1	-2.2539446
64	0xbfdf042a	-1.7423146
65	0xc141a607	-12.103034
66	0xbf6f05ae	-0.9336804
67	0x3f9f67c0	1.2453537
68	0xc14ff54c	-12.997387
69	0xc09f9c4f	-4.9878306
70	0xc11c02c1	-9.750672
71	0xc1338b3e	-11.221495
72	0xc002f68e	-2.0462985
73	0x3e05325a	0.13007489
74	0xbf4bd6bc	-0.79624534
75	0x3f3e4c7a	0.74335444
76	0xc156f328	-13.434364
77	0xbfd0f425	-1.6324507
78	0xc0db0a4a	-6.845006
79	0xc12ae945	-10.681951
80	0xbe5bc4ba	-0.21461764
81	0x40eeb5ef	7.4597087
82	0xbf8b1d98	-1.0868406
83	0x3f7643fd	0.9619749
84	0xbe1587f8	-0.14602649
85	0xc18e2c95	-17.771769
86	0x3eb01701	0.3439255
87	0xbee86d3f	-0.45395848
88	0xc0119d09	-2.2752097
89	0xc1687ed4	-14.530964
90	0xbd86a9ed	-0.065753795
91	0x3cb513a6	0.022104096
92	0xbd186fca	-0.037215985
93	0xc0e41e8d	-7.1287293
94	0xc065d48a	-3.5910974
95	0x3e90a9ba	0.2825449
96	0x3a80d4a1	0.0009828993
97	0x40c2c157	6.086101
98	0xbea03e93	-0.3129774
99	0x3f0df3a0	0.5544987
100	0xc0fd98aa	-7.9248857
101	0xc0bf5899	-5.979565
102	0xc1797254	-15.590412
103	0xc11caacd	-9.791699
104	0xc0121b86	-2.28293
105	0xbf0944ce	-0.5362061
106	0x3db6ca63	0.08925321
107	0x3ed3b795	0.41351
108	0xbf951edb	-1.1650041
109	0x40fe4b0d	7.9466615
110	0xc013f303	-2.3117073
111	0x3f3d5b54	0.7396748
112	0xbf21b1b6	-0.6316179
113	0x4026dd41	2.6072543
114	0xbf980b76	-1.1878498
115	0x3e9c98a6	0.30585212
116	0xbefa3c81	-0.48874286
117	0x3c982648	0.018572941
118	0x3fac4b11	1.3460408
119	0xc08ea9ff	-4.4582515
120	0xbf1b1098	-0.60572195
121	0xc0259f7f	-2.5878599
122	0xbf8ca243	-1.0987018
123	0x3cf4e08e	0.029892232
124	0xbf37e09c	-0.718271
125	0xc189a788	-17.206802
126	0x3e9ceab4	0.30647814
127	0xbf20f15b	-0.6286828

0.bias f4 [32]
0	0xc13a2ad2	-11.635454
1	0xc09ef9fe	-4.9680166
2	0x410077a8	8.029213
3	0xc0dcef1e	-6.904189
4	0x420357e6	32.83584
5	0x41c0778b	24.05837
6	0x4017d02f	2.3720815
7	0xc1509586	-13.036505
8	0x40c14147	6.0392184
9	0xc172858a	-15.157602
10	0x3f853b37	1.0408696
11	0x406f05af	3.734722
12	0xc16ad664	-14.677341
13	0x41d45e67	26.546095
14	0xc08fef5c	-4.4979687
15	0xc22f47d4	-43.820145
16	0x3fe7a2d6	1.8096569
17	0xbfc753c6	-1.5572441
18	0x411957b6	9.583914
19	0xc19994ae	-19.197598
20	0xc0c78a18	-6.235607
21	0xc0cdb574	-6.4284
22	0xc0716416	-3.7717338
23	0xc07da1dd	-3.9630044
24	0x425373c1	52.86304
25	0x419aa637	19.33116
26	0x405aac08	3.41675
27	0xbf19570f	-0.59898466
28	0xbf11ef5a	-0.57005847
29	0xc051f257	-3.2804163
30	0x421e4abb	39.57298
31	0xc10e1fc2	-8.882753

2.weight f4 [16, 32]
0	0xbefafef6	-0.49022645
1	0xbfb32774	-1.3996415
2	0x403130e3	2.7686088
3	0x3e81d1dc	0.25355422
4	0xbf8b5f87	-1.0888528
5	0x3f8b7e10	1.0897846
6	0xbfc0288e	-1.5012376
7	0x3fcb0149	1.5859767
8	0x3e6ed6a5	0.23324068
9	0x3e590eaa	0.21197
10	0xbfd9e296	-1.7022274
11	0xbdf74ef8	-0.12075609
12	0x401ef402	2.483643
13	0x3ed5b746	0.4174139
14	0x3f8004e2	1.000149
15	0x404e8774	3.2270174
16	0x3fa50e8c	1.2895064
17	0x3eed01c3	0.46290407
18	0xbf65971b	-0.89683694
19	0x3eaa1580	0.33219528
20	0x3fe8c0d8	1.8183851
21	0xbf9f8358	-1.2461958
22	0xbeee557d	-0.46549597
23	0x4061eed1	3.5302012
24	0xc024e755	-2.5766194
25	0x3f171dec	0.5903003
26	0xbfc52a42	-1.5403521
27	0xc05e7152	-3.4756665
28	0x3fe0e594	1.7570062
29	0xbf79cfac	-0.9758251
30	0xc04bc716	-3.1840262
31	0x4020b27c	2.5108938
32	0x4088c08c	4.2735043
33	0x3fe0b9f9	1.7556754
34	0xbff4280e	-1.9074724
35	0x4008ba82	2.1363835
36	0x3f328d48	0.6974683
37	0x3f631c21	0.88714796
38	0x4122f58e	10.18495
39	0xbe4763d7	-0.1947168
40	0x40159e59	2.3377898
41	0x40b6d79a	5.7138186
42	0x3fe42783	1.7824558
43	0x3f912fa5	1.1342665
44	0xc099c3aa	-4.805135
45	0xbfbfbcc9	-1.4979488
46	0x401edb55	2.482137
47	0x3fddbfd0	1.7324162
48	0xbfc1870d	-1.5119339
49	0x408c6822	4.3877115
50	0x3f8d55f1	1.1041852
51	0x40b20cba	5.5640535
52	0xc08a97dd	-4.331038
53	0x3faac873	1.3342422
54	0xbfdeac08	-1.739625
55	0x3f5d199f	0.8636722
56	0xc001f1ab	-2.0303752
57	0x40436672	3.0531278
58	0x3f084010	0.5322275
59	0xbf0ad0c8	-0.54224825
60	0x4010fbdc	2.2653723
61	0x400ba348	2.181841
62	0x409e9b2f	4.9564433
63	0xbf83969a	-1.0280335
64	0x3fe495de	1.7858236
65	0xc098ba4a	-4.7727404
66	0xbee8e5ae	-0.45487732
67	0x3e93ad21	0.28843024
68	0xbe9bfb20	-0.3046503
69	0x3f39379e	0.7235049
70	0xc01af273	-2.421048
71	0x3f9be3d3	1.2178901
72	0x3f47fc51	0.7811938
73	0xc00c659a	-2.1937013
74	0x40c078f5	6.0147653
75	0x3ddc2126	0.1074851
76	0xbf4abaf6	-0.7919153
77	0x403a20cc	2.9082518
78	0x3f87e5db	1.0617021
79	0xc02993a4	-2.6496363
80	0xbdc7ea70	-0.09761512
81	0x3dde355c	0.10850021
82	0x3f9fb1cd	1.2476135
83	0xbf7ea8ed	-0.9947651
84	0xc0a5f643	-5.1863112
85	0xc0562bab	-3.3464153
86	0xc01066bc	-2.2562704
87	0x3ef421dc	0.47682083
88	0xbf62c134	-0.88576055
89	0x3f7b8f0b	0.9826514
90	0x4022f5e9	2.5462592
91	0x40391bb2	2.8923154
92	0x409800c1	4.750092
93	0xbf65f5a3	-0.89827937
94	0x3ff676bd	1.9254986
95	0x3deb5008	0.11489874
96	0x3ed763ec	0.42068422
97	0xbf00d074	-0.50318074
98	0x3ea91af7	0.33028385
99	0xc0269415	-2.6027882
100	0x3c9a2d0b	0.018820306
101	0xbf2ec25d	-0.68265325
102	0xbfd3c184	-1.6543431
103	0x3e958dfc	0.29209888
104	0xbefc1f1d	-0.49242488
105	0x3e50a5d6	0.20375761
106	0xbfeaae91	-1.8334523
107	0x3dd62641	0.10456515
108	0x3f4e9165	0.80690604
109	0xc00eccb7	-2.2312448
110	0x3f02d5ec	0.5110767
111	0x4064af13	3.5731857
112	0x3e5a7b54	0.21336108
113	0xbed74f36	-0.4205262
114	0xbed15974	-0.4088856
115	0x3f1fc073	0.6240303
116	0x3f37e11c	0.71827865
117	0xc13ceccf	-11.807815
118	0x4014b933	2.3238037
119	0x3fabfa8c	1.3435836
120	0xbfd7231c	-1.680759
121	0x3e15a1dd	0.14612527
122	0xc00101e3	-2.0157402
123	0xbe782019	-0.24230994
124	0xbffd2e54	-1.9779763
125	0xc0286e13	-2.6317184
126	0xc0e1634b	-7.0433707
127	0xc0b41d1e	-5.6285543
128	0x3f82c666	1.0216796
129	0xbfbcce59	-1.4750472
130	0x3f5cb55e	0.86214244
131	0xbf51ad74	-0.81905293
132	0xbf0f3945	-0.5594676
133	0xbf4a4c5a	-0.79022753
134	0x40a85a6f	5.2610393
135	0xbf69fddf	-0.91403
136	0xbd662248	-0.056185037
137	0x3fd99f25	1.7001692
138	0xbfc0f9d8	-1.5076246
139	0xbfe1db9a	-1.7645142
140	0x3f940aec	1.1565833
141	0xbf1ad5f5	-0.6048272
142	0x3d76d55e	0.060262077
143	0x409b7400	4.85791
144	0x3fc5aa80	1.5442657
145	0x3efa4f43	0.48888597
146	0xbdfe2124	-0.12408665
147	0x3fb6a814	1.4270043
148	0x3e7e7887	0.24850665
149	0x3f7a726e	0.97830856
150	0xbe3bc58c	-0.18337077
151	0xbff1e1ee	-1.8897073
152	0x3f106a84	0.5641253
153	0xbe603527	-0.21895276
154	0xc001cf24	-2.0282679
155	0x4020dac9	2.5133536
156	0x4086b62a	4.209737
157	0x3f37bc7b	0.71771973
158	0xbecf1413	-0.40445003
159	0x3fc89014	1.5668969
160	0xbef62d96	-0.48081654
161	0x3f669a5b	0.9007928
162	0x3f47b71e	0.7801379
163	0xbf2a2838	-0.6646762
164	0x3faec608	1.3654184
165	0xbfcc7efe	-1.5976255
166	0x3f9ccebc	1.225059
167	0xc00eca53	-2.231099
168	0xbf5d1128	-0.86354303
169	0x40343ca3	2.816201
170	0xbf725885	-0.9466632
171	0x3e5d0c83	0.21586804
172	0xbfb59669	-1.4186527
173	0xbf9a0082	-1.2031405
174	0xbe947a69	-0.28999642
175	0x3ed19db3	0.40940627
176	0xbf321e58	-0.6957755
177	0x3f937000	1.1518555
178	0xbeef0d17	-0.46689674
179	0x3feca07f	1.848648
180	0xbf7acaed	-0.9796589
181	0xc03f82ab	-2.9923503
182	0xbf0ffdde	-0.56246746
183	0xbf482d28	-0.781939
184	0x3f01e352	0.5073749
185	0xbd9f583c	-0.07780501
186	0xbe103180	-0.14081383
187	0xbfe2108f	-1.7661303
188	0x3e0876b9	0.13326539
189	0xbda6666a	-0.08125003
190	0xc008b972	-2.1363187
191	0xbf27d3f2	-0.6555778
192	0x3fb358ce	1.4011476
193	0x40144586	2.3167434
194	0x3f1f0207	0.6211247
195	0xc09c38ff	-4.8819575
196	0xbf2fdea2	-0.68699086
197	0xbf826648	-1.0187464
198	0xc010367c	-2.2533255
199	0x3f494eb3	0.7863571
200	0xbe1772ef	-0.14789937
201	0xbf3c5331	-0.7356444
202	0x403cf562	2.952477
203	0xbb7f6b8b	-0.0038974013
204	0xbf70b6e5	-0.94029075
205	0xbf2e9fa7	-0.6821236
206	0xbda1221c	-0.07867834
207	0xc0638c4a	-3.5554376
208	0x3dae2128	0.08502418
209	0x3a155c85	0.00056976854
210	0x3fa0e5ad	1.2570091
211	0xbefc0f8b	-0.49230608
212	0xc09d3709	-4.912968
213	0xbf8f92bc	-1.1216655
214	0xc02ba229	-2.6817725
215	0xbec94ce6	-0.3931648
216	0xbf52ffb5	-0.8242143
217	0x3f0932ad	0.5359295
218	0x3f8f4252	1.1192114
219	0x3ebc709b	0.3680466
220	0xbf7778a3	-0.9666845
221	0x3fab819a	1.3398926
222	0x407357c8	3.8022327
223	0xbf999f89	-1.2001811
224	0x40266f9e	2.6005626
225	0x3e709296	0.23493418
226	0x3f9bde23	1.2177166
227	0x3fb0f3c8	1.3824396
228	0xbf0faa2f	-0.56119055
229	0x3c37b29a	0.0112120155
230	0xbfd9777b	-1.6989588
231	0xbea20915	-0.31647554
232	0xbfc65832	-1.5495665
233	0xbf0b29a4	-0.54360414
234	0xc05bd61c	-3.4349432
235	0xbe9f0b8e	-0.31063503
236	0xbf8db250	-1.1070042
237	0xbeb3fbcd	-0.35153046
238	0x3e846a12	0.25862175
239	0x4041b9cc	3.0269651
240	0xc021a9b9	-2.525984
241	0x3e864858	0.2622707
242	0xc0067b69	-2.1012824
243	0xbdd6560d	-0.10465632
244	0xbdb79cf8	-0.08965486
245	0xbd2b5967	-0.041833308
246	0x4032579b	2.786597
247	0x401a60ad	2.4121506
248	0x3fc35a32	1.52619
249	0x3eac2b4e	0.3362679
250	0xbf716b0a	-0.94303954
251	0x40035a7b	2.0523975
252	0xc01fbda7	-2.4959505
253	0xbfe37294	-1.7769341
254	0x408dc2d6	4.4300337
255	0xbfdd0a90	-1.7268848

2.bias f4 [16]
0	0xc0d63f38	-6.695217
1	0x41b41c4b	22.513815
2	0xc152ec5c	-13.182705
3	0xc0102b07	-2.2526262
4	0xc15d247d	-13.821408
5	0x3fab47b1	1.3381253
6	0x424322f6	48.78414
7	0x3f07e2ec	0.5308063
8	0xc08124f2	-4.03576
9	0x406ff6bc	3.7494345
10	0x4032f15c	2.7959814
11	0xc19edb67	-19.85713
12	0xc10ab322	-8.668734
13	0x40eb7106	7.357547
14	0xc1a72ef0	-20.897919
15	0xc08dec43	-4.4350905

4.weight f4 [2, 16]
0	0xbd3d5002	-0.04621888
1	0xbf11a4f8	-0.5689235
2	0x3f189c75	0.59613734
3	0xbdea2a12	-0.114338055
4	0x3dd16b0a	0.10225494
5	0xbdb54687	-0.08851343
6	0x3f5b9e33	0.8578827
7	0xbd81a32b	-0.0632995
8	0xbd900c8a	-0.07033642
9	0xbf757ebb	-0.958965
10	0xbdc83e5a	-0.097775176
11	0x3d2f92ca	0.0428646
12	0x3da90452	0.08252777
13	0x3c41d83a	0.011831338
14	0x408279d6	4.0773726
15	0xbd037018	-0.032089323
16	0xbd8aeb1b	-0.06783124
17	0xbfbe7958	-1.4880781
18	0xbf38e671	-0.72226626
19	0x3e6a02c0	0.22852612
20	0x3dbc1480	0.091835976
21	0xbdabf75a	-0.08396788
22	0xbf92ffc8	-1.1484308
23	0x3d16a054	0.036773995
24	0xbd8932f0	-0.06699169
25	0xbf136d70	-0.57588863
26	0x3d90a0e6	0.07061939
27	0x3d455600	0.04817772
28	0xbec847c1	-0.39117244
29	0xbe5334ad	-0.20625563
30	0x4096b923	4.7100997
31	0xbe340d3d	-0.17583175

4.bias f4 [2]
0	0xc0bc5d95	-5.8864236
1	0xc1a127a7	-20.144361
